04-neural-networks/models/winemodel.pth (torch, 806932 bytes, 9 tensors)

features.0.weight f4 [256, 11]
00000000: 7412 a0be 9d0b 983d 963b 883d 847d 66be
00000010: e1df 633e 1dca cbbe 5086 dabd 5a2c 85be
00000020: 4f46 573e 4747 a03d 26f1 463e 552a 6e3d
00000030: 89cf b83e 3495 883e 5799 0fbe d726 69be
00000040: 1fc1 1b3e ad74 b3bd e4f6 f23e 5622 913e
00000050: e673 973e a4d0 0e3f 2812 933e ea37 3c3e
00000060: 35ef 59be 7c35 643e ca1d 3cbe 6279 80be
00000070: 9411 f7bd 16ae 83be 30c4 d9bc 442d 9c3d
00000080: 0069 82be 2086 e8be 42d1 033f 4347 263e
00000090: e9a6 64bd 38ec ff3c fbbf 1b3d 5a47 6f3c
000000a0: 5c3a adbe 3d8a 54bd f551 06bf 11e7 61bf
000000b0: dfbf 82be a23e b43e 8c0b 13be 3186 a0bc
000000c0: 3914 933e 5da4 b3be 9009 d9bc d98a 75be
000000d0: 5e58 6abd 7546 253e 0e26 f93d 80b4 4e3e
000000e0: 2bca 5fbe 75d8 c53d 4505 78bd 3148 063e
000000f0: 2bba bb3d 2845 83be d7e0 47bd 3e14 4b3e
00000100: ce3b 7c3e ce63 cebc 73f0 273d ee96 cabe
00000110: fc27 87be e796 04bf c322 28bf 9954 19bd
00000120: 50c3 febd 3573 f1bd 6741 293e 9380 b43c
00000130: d8b2 cc3d 50b5 963e a058 fc3c 506b 163e
00000140: 80d4 813d b83f ac3d aa84 21be f491 44be
00000150: d4fa 05be b8f6 043d b970 8abe c0b2 4ebd
00000160: e8b0 abbe 3b2c 1bbd c9d4 e7be 060f 383e
00000170: 1673 f43e 7228 8dbe 89d1 3e3b 9cef 46bd
00000180: 7dd3 9fbe dfc7 61be 7556 68bf bca2 2dbd
00000190: eded bcbd ee5b 2f3e 78a1 0c3e ab8b 673e
000001a0: 45c6 8f3e 9ae9 5abe ecc8 98be 3946 6c3d
000001b0: 413f 53be 6702 313d 956e 01be 2cfb 6a3e
000001c0: 53a9 8bbe affb 26be 58db c7bd ff59 80be
000001d0: 20ac c1bc 2059 0c3d 0247 98bd 24f7 0dbe
000001e0: 5c9c 913d 183f 8bbe ad02 023b 4ee7 c33c
000001f0: fe4f fbbd 4d5d 883d c072 4839 8bce c5bc
00000200: 3b54 303e 9797 623d 4c88 8ebe 1092 cc3d
00000210: d9e9 30be cb20 00be ee93 a83d 31a5 8ebe
00000220: 5b40 893e c94e 85be 91f9 5fbd 2d76 26be
00000230: 5938 223e 625d a4bd 792c 3e3e e06b 87be
00000240: 89b9 babe 9a4c 9dbd 9a11 803c d197 70be
00000250: 3633 9b3d bf7c 34bd 61a3 98be 6be2 223c
00000260: b8d4 2f3d ec1f 50bd 7a64 f5bd a06a 763d
00000270: a0b5 763e f417 0d3e 304c e53c 763b c0bd
00000280: d8b0 3cbe fc1d 2c3e 10e9 c0bc 8001 e33d
00000290: 2084 a93d 09e1 c6be be85 353a 9114 043e
000002a0: 4eed 063e 557b d73e 8941 01be 32fc 543c
000002b0: f1de f9bd 907c b6be 17c7 04bf 7c1d 2bbf
000002c0: b4c2 513e bffe 8fbe 4409 8a3e 504f 663d
000002d0: c611 cbbd 0c76 d33d 91b3 7bbe 801c 5ebe
000002e0: c07f df3d e4c6 353e 03fa 1ebe 6bcd dfbe
000002f0: cfb4 c1be e831 d2be c501 adbc e186 ae3d
00000300: 9e92 dfbe 4ad6 403d 5e7c f7be ee99 a8bd
00000310: e5b5 d7be efc5 6abe 4490 8a3e d0fc abbd
00000320: 4059 06bd 6468 c43d f270 e0bd e821 b9bd
00000330: ecd5 3bbe bc70 b63d a8d6 c9bd c4a1 8ebe
00000340: dc1c c1bd c0fc a43c 4e68 27be 32ef dabe
00000350: 30b3 c7bc 28a2 c6be 5481 38be e471 0cbe
00000360: 6b7e ad3b 0a66 4fbe 007a 3b3e 899c 223e
00000370: b593 8ebe b013 96bd 0a05 8c3e b6fc cbbd
00000380: 07ab 67be e4ac 06be 80c0 4abd 60b6 7f3c
00000390: ec36 993e f47e be3d fcd8 68bd a5b0 0dbe
000003a0: 3f72 14be 4861 5dbd e8da 3cbd 4492 963e
000003b0: 2447 90bd 2c0b ffbd 348a 7fbe dabe 54be
000003c0: 140f 88bd 0d0d 83be 8942 4e3f 0ed4 bb3f
000003d0: feb7 31bf a494 f4bd 908d 553f 1dcf 51bf
000003e0: 78fe d63b 89a7 d73e fb7b d63e a793 f5be
000003f0: 21c6 b03d a760 a1be 710a 373e 8e4f a9be
-0.3126408 0.0742409 0.0665199 -0.22508818 0.22253372 -0.39802638 -0.10670149 -0.260104
0.21022914 0.07826095 0.19427928 0.05814584 0.36095837 0.26676333 -0.14023338 -0.22768722
0.15210389 -0.087624885 0.47453988 0.2834651 0.2958061 0.5578711 0.2872479 0.18380705
-0.21282656 0.22286028 -0.18370739 -0.25092608 -0.120639 -0.25718755 -0.026582807 0.07625821
-0.25470734 -0.4541483 0.5149118 0.16238122 -0.05582324 0.031240568 0.038024884 0.014604414
-0.33833587 -0.051889647 -0.52468807 -0.88243204 -0.2553701 0.35204035 -0.14359874 -0.019595237
0.28726366 -0.35086337 -0.026493818 -0.23978747 -0.05721318 0.16140158 0.121654615 0.20186043
-0.21854465 0.096604265 -0.0605519 0.13113476 0.09166368 -0.256387 -0.04879841 0.1983194
0.24632189 -0.025194075 0.041000795 -0.39568275 -0.26397693 -0.5179276 -0.6567804 -0.037434194
-0.12439597 -0.11789552 0.16528855 0.022033965 0.09995049 0.29435205 0.030803978 0.14689374
0.06339359 0.08410591 -0.15773264 -0.19196302 -0.13083965 0.03246185 -0.27039126 -0.050463438
-0.33533406 -0.03788398 -0.4527953 0.17974481 0.47744054 -0.2756992 0.0029116592 -0.048568353
-0.3121604 -0.22048901 -0.9075692 -0.042391524 -0.09225068 0.17124912 0.1373347 0.22611873
0.28080955 -0.21378174 -0.2984079 0.057684157 -0.20629598 0.04321518 -0.1263984 0.22947377
-0.27277622 -0.16306947 -0.097586334 -0.25068662 -0.023641646 0.034264684 -0.07435419 -0.13863808
0.07109901 -0.27196574 0.001983802 0.023914006 -0.12271117 0.06658421 0.00019116234 -0.024146339
0.17219631 0.05532035 -0.2783836 0.09988797 -0.17276706 -0.1251251 0.0823134 -0.27860406
0.26806912 -0.2603667 -0.054681364 -0.16256018 0.15841807 -0.08025624 0.18571652 -0.2644949
-0.36469677 -0.07680626 0.015633393 -0.23495413 0.07578127 -0.04406428 -0.29812148 0.009941678
0.042927474 -0.050811693 -0.11982055 0.06016028 0.24092722 0.13778669 0.02799043 -0.09386341
-0.18426836 0.16808313 -0.023548633 0.110842705 0.08277154 -0.38843563 0.0006924531 0.1289847
0.13176462 0.42086282 -0.12622656 0.012999581 -0.12200726 -0.3564191 -0.51866287 -0.66841865
0.2048443 -0.28124043 0.26960194 0.056227982 -0.099154994 0.1032525 -0.24580218 -0.2169056
0.10913038 0.17751652 -0.1552506 -0.4371141 -0.37833259 -0.410537 -0.021119008 0.0852182
-0.43666548 0.047079362 -0.48337072 -0.08232485 -0.42130962 -0.22927068 0.2706319 -0.083978295
-0.03279996 0.095902234 -0.109590426 -0.0903967 -0.18343323 0.08908221 -0.098553956 -0.27857792
-0.094293326 0.020140052 -0.16348383 -0.42760617 -0.024377435 -0.3879559 -0.18018085 -0.13715321
0.005294611 -0.20253769 0.18308258 0.15880026 -0.27847067 -0.07327974 0.27347594 -0.0996031
-0.22623836 -0.1315189 -0.04949999 0.015607446 0.29924715 0.09301558 -0.056847557 -0.13836916
-0.14496706 -0.054047853 -0.046107203 0.29408467 -0.07044819 -0.12453303 -0.24955064 -0.20775929
-0.06643501 -0.25595894 0.80570275 1.4674089 -0.69421375 -0.119424134 0.8341913 -0.81956655
0.0065610968 0.42120007 0.41891465 -0.47964212 0.0863154 -0.31519052 0.17875077 -0.33068508

features.0.bias f4 [256]
00000000: 79a4 6b3e 1f89 953e 2bf4 13be a569 f1be
00000010: 5e63 293e f320 bc3d 4903 d3be 984a 0b3e
00000020: 9441 91be 96d3 523e e465 833d 6632 a6be
00000030: 2d5f 92be 4c2b e0bd 10ba cb3c 0a48 edbe
00000040: f059 053e 9b7c 29bd 9c1b 35be 8b32 67be
00000050: 51d8 86be 40bb 593d f520 083f d092 6dbd
00000060: 6ff8 173e e6f7 873e d106 603d 195c d6be
00000070: e4cf 9dbe 0ebd 1fbd bb25 2ebe c65c e7bd
00000080: a745 4cbe 1053 153f 1e49 463e aa32 1cbe
00000090: b663 dcbd ce4b a9bd 5527 a0ba 0085 d3be
000000a0: ef1f 8dbe 346a 943e ec8b ec3d ec05 c2bc
000000b0: 1a30 0ebf 8fbe 4e3e 74b8 033e 404f 5fbc
000000c0: b68d bdbd 035a 78be d001 bcbd ab4e 1abe
000000d0: 4063 45be 32cf 343d 4a9a bc3d 0a1d a7bc
000000e0: 957d 253e fc42 c4bd 7e14 a0be 178a 6ebe
000000f0: 0835 da3d 8d8e a03d a0eb 1d3e 0395 c33d
00000100: 71de 59bd 2070 a2bd c66b b53c d501 12bc
00000110: 2017 df3d 30a6 af3d 106b 38be 3c4d 56bd
00000120: a0a9 d13d 80b7 113b 4677 3b3d 4f70 75bf
00000130: a240 67be 97e8 4ebe 3ca1 833d d8e6 e1bd
00000140: 10ae 853d 22da 5bbe cc25 09bc 04f5 2cbe
00000150: ac35 0bbe 982d d03c 24a6 17bd 197e 11be
00000160: 5f34 08bc 81de 85be 60d5 7ebc b7d1 19bd
00000170: a236 02be 1cf4 613e d38f 8f3c 3f11 6cbd
00000180: ac50 93bd e33b 3cbe 4b5a 9dbe e8eb b2bd
00000190: e0bc 553e f2db 1e3d 7e03 983e e494 9fbe
000001a0: 101c d73d 7bb9 11be 7f78 5dbe b644 65bc
000001b0: 0787 1d3e 5e76 743e f0f8 f0bc 4a87 653d
000001c0: a7f5 26bd 4058 8bbe b295 8dbe a006 a53c
000001d0: 3b01 293e e435 3d3c ea94 013e 95ad aabe
000001e0: 0b91 0abf 4346 c9bc 4a9c b0bd ddfb 8dbe
000001f0: 7981 68be ab63 87bd 3ecb 363e aadd 713c
00000200: be05 a1bd 93af 54be e956 cabd 3cf5 a3be
00000210: 9223 113e e618 053e d20d c4be e8c6 d23d
00000220: 4c20 e8bd 965f 55be 8017 24bc d306 4bbd
00000230: dd7b cebe b8fd 5bbd c0e4 2b3d 00de 033a
00000240: d76e 77be 23db e1be 88a0 84bc 9fdb 30be
00000250: d0dd 32bd 9a7c 7b3e e16f 89be 9e97 2b3e
00000260: 2053 4fbe 5e18 84bd be01 243d 86c5 1bbe
00000270: acc9 923e f602 9bbe a065 733c dc63 84be
00000280: bb1a b0be a01f efbe 9305 f03d 6b0d c93d
00000290: 00dd 2cbe f115 5abe 2437 433e 19c0 ebbe
000002a0: e4bb e5bd 411d 25bc c8a6 593e 5426 03be
000002b0: e50c 0cbe 3008 debc bcae 833e 2d6d 5fbe
000002c0: 9b1a 03bf 6ed7 823e 995c 023e f593 8ebe
000002d0: cda9 87be 6073 66bc 208c dcbc bd87 16be
000002e0: e8ee b23d 4a9b 18be 0b29 7bbc 3d46 46be
000002f0: f806 e43d eabe 16bd 273e fcbc a79d eebd
00000300: 80aa ebbd 78a6 89be bfe4 4b3e cda7 3bbe
00000310: 10d0 f2bc 64be 4c3e 6fd5 503e 1e11 313e
00000320: 57a4 1a3e 5c1d 43be 8304 92be fc54 a4be
00000330: b05b 31bd a27f ba3d ea23 df3d e9cc db3d
00000340: 0ec3 303e d322 f53c 93bb 363d d2e2 acbe
00000350: e895 1ebf 6551 bcbe 3ca6 14be 8dab d3bd
00000360: f63e 81be 1848 febd 1a19 f5be 6cc3 acbd
00000370: 3388 7f3d e1e1 263e 0685 c43d 3f7f 32bd
00000380: 4527 e6bd 8e12 30be 141e 6ebe e81b 35be
00000390: 2a88 c13e 1490 41be b140 80be 2791 5abe
000003a0: 2704 07bf 18e3 27bd 7759 02be 4506 adbe
000003b0: c9a6 d9be adcd 89be 1a6c 2dbe 6b99 7c3e
000003c0: de44 0c3e e012 203c 709c 5b3d 4512 5ebe
000003d0: 5825 bf3d 0ff4 9abe 9472 3f3e ae9f 193e
000003e0: 49cb d2be e22b 94be 52eb ccbc c440 acbd
000003f0: eae5 9dbe 6c51 8e3d 8a1d 6b3e 00e9 d5bd
0.2301196 0.29206178 -0.14448611 -0.47150913 0.16541812 0.09185972 -0.41213444 0.13602674
-0.28370345 0.20588526 0.064159185 -0.32460326 -0.28588238 -0.10945758 0.024868995 -0.46344024
0.1302259 -0.0413786 -0.17686313 -0.22577874 -0.2633691 0.05315709 0.5317529 -0.05800134
0.14840864 0.2655632 0.054694 -0.4186714 -0.3082267 -0.038998656 -0.1700658 -0.11296992
-0.19948445 0.5832987 0.1936383 -0.15253702 -0.10761206 -0.08266412 -0.0012218753 -0.41312408
-0.27563426 0.28987277 0.115501255 -0.023684464 -0.5554215 0.2018988 0.12863332 -0.0136297345
-0.09255545 -0.24253087 -0.09180033 -0.15069072 -0.19276142 0.04414291 0.09209116 -0.02039959
0.16161187 -0.09583089 -0.31265634 -0.23294865 0.10654646 0.078396894 0.15421915 0.09549906
-0.053190652 -0.079315424 0.022146117 -0.00891157 0.108930826 0.085766196 -0.18009591 -0.05231975
0.102374315 0.0022234619 0.045768045 -0.95874494 -0.22583249 -0.20205913 0.064272374 -0.11030358
0.065273404 -0.2146993 -0.008370828 -0.16890341 -0.13594693 0.025412366 -0.03702368 -0.14208259
-0.0083132675 -0.2614632 -0.015553802 -0.037553515 -0.12716153 0.22065777 0.017524635 -0.057633635
-0.07193121 -0.1838222 -0.3073295 -0.08736402 0.20872831 0.038783975 0.29690164 -0.31168282
0.10503399 -0.14230911 -0.21627997 -0.013993433 0.1538354 0.23873278 -0.029415578 0.056037225
-0.040761616 -0.27215767 -0.2765327 0.02014476 0.16504376 0.011548493 0.12654462 -0.33335558
-0.5412757 -0.024569636 -0.0862356 -0.2773122 -0.2270564 -0.06610807 0.17850968 0.0147623215
-0.07862423 -0.20770101 -0.09879858 -0.32023036 0.14173725 0.12997779 -0.38291794 0.102918446
-0.11334285 -0.20837244 -0.010015368 -0.049567055 -0.40328875 -0.053708762 0.0419662 0.0005030334
-0.24163376 -0.441125 -0.016189829 -0.17271279 -0.043668568 0.2455925 -0.2684317 0.16757056
-0.20246553 -0.0644996 0.040040724 -0.15212068 0.28669488 -0.30275697 0.014855772 -0.25857437
-0.34395394 -0.46703815 0.11719813 0.098170124 -0.1688118 -0.21297432 0.19064003 -0.46044996
-0.11217478 -0.010077775 0.21255028 -0.1280759 -0.13676794 -0.027103513 0.2571925 -0.21818991
-0.5121247 0.25554985 0.12730636 -0.27847257 -0.26496735 -0.0140655935 -0.026922286 -0.14700218
0.08736974 -0.14902988 -0.01532961 -0.19362731 0.11134142 -0.036803164 -0.030791355 -0.116511635
-0.1150713 -0.26884818 0.19911478 -0.1832573 -0.029640228 0.19994503 0.20393918 0.17291686
0.15101753 -0.19054168 -0.28519067 -0.32096088 -0.04330033 0.09106375 0.10895522 0.10732443
0.17261907 0.029923832 0.04461248 -0.337668 -0.6194749 -0.3678085 -0.14516538 -0.10335455
-0.25243348 -0.124160945 -0.47870713 -0.08435711 0.06238575 0.16297103 0.09595685 -0.043578383
-0.11237959 -0.17194578 -0.23253661 -0.17686427 0.37799197 -0.18902618 -0.25049356 -0.21344434
-0.5274071 -0.040988058 -0.1272944 -0.33793846 -0.4251006 -0.2691473 -0.16935769 0.246679
0.13698146 0.009770125 0.053615987 -0.21686657 0.09333295 -0.30264327 0.18696052 0.15002319
-0.4117072 -0.2893973 -0.025014553 -0.084107906 -0.30839473 0.06949124 0.22960487 -0.10444832

features.3.weight f4 [256, 256]
00000000: 4fd7 92bd 6898 913d 346e bebc 2adc e5bd
00000010: e3b8 c1bc b4cd 0f3d 8aa0 e1bb 2885 53bc
00000020: 845e eebd 2f65 24bb ca4d 25bd a2e1 2f3d
00000030: 54d1 163d 6644 74bd e853 44bd ff09 15be
00000040: c4f3 033d e4a9 763c b242 1a3d dd81 7fbd
00000050: 0867 e4bc 782b 033d f0d4 8fbd 8d99 a5bd
00000060: 5ed1 a8bd 58b8 02bd 210c 4ebd 27da 44bd
00000070: a8bc dcbc 7d1f 38bc 6241 543d 302e 403d
00000080: 16d8 37bb 8234 58bc 5436 e53c 2902 8b3d
00000090: 1a1d 533d 2a40 5d3d 2e09 eebb 53cc b6bc
000000a0: 9a5a 4b3d f615 9fbb cc87 babc 2720 4cbb
000000b0: a4fe 563d 37f2 9fbc 3648 55bd d2f9 49bd
000000c0: b402 9a3c dc21 9a3c bece 9bbc 1d6e e73c
000000d0: e047 46bb a3ef 35bd 6458 c2bc 7dfe cebd
000000e0: 4a4b 1f3d a079 b5bc 0906 4fbd c3c5 07be
000000f0: 9c49 f0bd b839 82bd 3407 54bd e015 563d
00000100: 2cf1 88bd ad0f 15be 0849 b0bd 9cbd c2bd
00000110: 98ee 213d 85f3 05bd 8c3e 353c b081 16bd
00000120: 90ae ffbb e827 723d 70f2 c838 2db4 67be
00000130: d3b2 8abd ecdd 63bd 4dab 82bd 5df5 e93d
00000140: 50d3 343c d7be b63c cb21 a4be 604c 91bd
00000150: 8a72 0bbd 8725 aabd 1d8a 12bd e049 5ebd
00000160: 3f7f 9cbd 2272 513d 1078 153d 0ccc 1abe
00000170: 580b d1bc 107c 0fbc a61b 0e3d 0000 b038
00000180: 86c6 5dbd 4792 e3bb de40 4abd a8c5 373c
00000190: d05a 5b3c 4449 8f3c 3083 a2bc 5791 5c3c
000001a0: ea82 0c3d 5ff2 00bb 2e89 eb3c b17b ef3c
000001b0: 9c4c bb3d 105a 89bb 8039 3cba f932 5d3c
000001c0: fd23 403c 3f1d e7bd 6fbc 9fbc 30ac 96bc
000001d0: 3df9 e63b 2ac4 8dbd a620 37bb 6198 8cbc
000001e0: efb0 55be 5f21 6ebc 8007 5abb a06a 983b
000001f0: a416 0fbd 82ec a83d b010 2ebc 3fb7 cfbb
00000200: a73f c9bc a267 db3c 2b7f 94bd e660 a9bb
00000210: ea78 38bd 2cd3 acbc c025 6b3b 2c14 88bc
00000220: e13d e2bc e455 cc3c 0a21 77bd e5d6 05bd
00000230: 87e6 4dbd 8e6f d6bb 00ec c3bb 96c2 0f3d
00000240: 9214 833c 782c c23c 4ba8 8d3d 2518 a1bb
00000250: 4fb0 c7bd e6ef 0dbd c808 e6bc cb03 abbd
00000260: 7c08 d93c 492c 6f3c 001c 21b9 84f0 473c
00000270: 0edc 7c3d 9951 fcbb 1225 693d 97a7 8fbd
00000280: ae64 953b bcd8 f2bd 9ac1 be3d 2a27 2fbe
00000290: 6b3a 8cbc 7b80 ebbd a924 c0bc f438 a0bd
000002a0: 74e2 b13c af4e 83bd 72fc 86bb a04e 46bc
000002b0: 4438 463d 4001 ebbc 68cf 09bd bda1 a43c
000002c0: a3ba 003d 70d2 85bc 781b 153d 8dbe c5bc
000002d0: e043 363c 3076 2f3c 5a2b 793d 6272 6ebd
000002e0: a42b 1d3d 0df9 a33c 9fc2 44bd 80f7 3e3c
000002f0: 08e1 22bc 111d f23a ec49 a1bd debe 51bd
00000300: e060 74bb 523a afbc c8a3 45bb 04db c73c
00000310: d8a0 3bbd 294e 99bd bd14 11bd 02e9 ab3c
00000320: cfd5 e1bd 60b7 59bb f835 fabd 7626 35bd
00000330: d437 88bc 6299 973c 9f9a 19be 1b38 27bd
00000340: 08fc 62bc def7 653d c2ec df3c cf93 f6bc
00000350: 5e00 1dbc a233 00bd cc84 52bd 9307 3d3d
00000360: 75d3 69bc fad7 753d 8bad 7fbc 68d4 263c
00000370: 402e dfbb 2af8 61bd ba2e 30bd 50b9 a03b
00000380: 9fdf 3abd 18a0 58bd 48d5 223c e82a 9f3c
00000390: 8180 39be 10c6 043d 9965 4dbd 5e77 15bc
000003a0: af3f d3bb d8f4 eebc ba1c 54bc ba9e c33b
000003b0: cd66 b33d 75ca 873d 0806 b2bc 3c6f 25bc
000003c0: 8258 493d e0ac 69bb bee9 633d 8769 3f3d
000003d0: 2c1f 8d3c 3ec1 1bbd 4935 7abd c0da 4f3d
000003e0: b6c1 a33c be08 75bd 8975 253c fc4c 82bc
000003f0: 3959 683d b67c 0cbd b903 0c3d 2899 51bc
-0.07169973 0.07109147 -0.023245908 -0.112236336 -0.023647731 0.035108283 -0.006885593 -0.012910165
-0.11639121 -0.0025084724 -0.04035739 0.04293979 0.036820725 -0.059635542 -0.04793158 -0.14554594
0.032214895 0.0150551535 0.03766126 -0.062379707 -0.02788116 0.032023877 -0.070230365 -0.08085928
-0.082430586 -0.031914085 -0.050304536 -0.04805961 -0.026945427 -0.011237976 0.051820166 0.046919048
-0.0028052381 -0.013196113 0.027980007 0.067875214 0.051541425 0.05401627 -0.007264278 -0.022314226
0.04964695 -0.004854913 -0.022769831 -0.0031147094 0.052488938 -0.019524677 -0.05207082 -0.049310513
0.018800117 0.018814974 -0.01901948 0.028250748 -0.0030255243 -0.04441799 -0.023723789 -0.101071335
0.03889016 -0.022152722 -0.050542865 -0.13259034 -0.1173279 -0.06358665 -0.051764682 0.052266955
-0.06686625 -0.14556761 -0.086076796 -0.09508821 0.03953418 -0.03270294 0.011062276 -0.036744773
-0.007802792 0.05912009 9.581901e-05 -0.22627325 -0.06772389 -0.055631563 -0.06380329 0.114237525
0.011036709 0.022307796 -0.32057032 -0.070946455 -0.03404478 -0.08307939 -0.035776246 -0.05426967
-0.07641458 0.051134236 0.036491454 -0.151169 -0.025518104 -0.008757606 0.034694336 8.392334e-05
-0.054144405 -0.006944928 -0.04937827 0.0112165585 0.013388351 0.01749099 -0.019837946 0.013462386
0.034304537 -0.0019675714 0.028751936 0.029233785 0.091454715 -0.0041916445 -0.0007180199 0.013500922
0.01172733 -0.11284875 -0.019499032 -0.018392652 0.0070487545 -0.06922181 -0.0027943044 -0.017162504
-0.20868276 -0.0145343235 -0.003326863 0.0046513826 -0.0349337 0.08248235 -0.010624096 -0.0063389833
-0.024566485 0.026782814 -0.07250818 -0.005169022 -0.045037188 -0.021096788 0.0035880655 -0.016611181
-0.027617397 0.0249433 -0.060334243 -0.032675643 -0.050268676 -0.00654406 -0.005979061 0.03509768
0.01600102 0.023702845 0.06916865 -0.0049162083 -0.09750425 -0.034652613 -0.02808036 -0.08350333
0.026493303 0.014597961 -0.00015364587 0.0122033395 0.061733298 -0.007700157 0.05692012 -0.07014387
0.004559121 -0.11857745 0.0931427 -0.17104784 -0.0171177 -0.11499115 -0.02345498 -0.07823363
0.021714427 -0.06411492 -0.0041194493 -0.012103707 0.048393503 -0.02868712 -0.033645064 0.020096654
0.03142799 -0.016335696 0.03640315 -0.024138713 0.011124581 0.01070933 0.06083236 -0.058214553
0.038371697 0.020016218 -0.048037168 0.011655688 -0.009941347 0.0018471797 -0.078754276 -0.051207416
-0.0037289187 -0.021390114 -0.0030157436 0.024396427 -0.04580769 -0.07485611 -0.03542017 0.02098513
-0.11027109 -0.0033220872 -0.12217325 -0.044226132 -0.016628183 0.018505756 -0.1500039 -0.04082499
-0.013854034 0.056144588 0.027334575 -0.030099778 -0.009582607 -0.03129924 -0.051396176 0.0461498
-0.014271607 0.060020424 -0.015605341 0.0101824775 -0.0068109334 -0.05516831 -0.043013312 0.0049049035
-0.045623418 -0.052887052 0.0099385455 0.019429639 -0.18115427 0.03241545 -0.05014572 -0.009122698
-0.0064468007 -0.029169485 -0.012946302 0.0059698494 0.08759842 0.066304125 -0.021731392 -0.010097321
0.049156673 -0.003565602 0.055642836 0.046731498 0.017226778 -0.038026087 -0.061085973 0.050745726
0.01998983 -0.05982279 0.010098823 -0.01590585 0.056725714 -0.03429862 0.034183238 -0.012792863

features.3.bias f4 [256]
00000000: 7736 f6be 4204 b43e 1a8b 84be 9cb9 50be
00000010: 0f6d c8be cfc1 acbe 48a3 60bc 051f 0bbe
00000020: 0387 9ebe 6ccf 58be cbf4 b43e adb2 d2be
00000030: 2682 3ebe 49d8 94be b1d4 94be 6723 573e
00000040: 4233 a0be 9c02 8cbe 0f46 c8bd aeb0 4fbd
00000050: 65ed 85be 82f8 9bbe 3a2a 92be 3505 8fbe
00000060: b9a6 03be a31d 4abe 6ba7 17be 4969 9fbe
00000070: 4fb9 84be 3794 debe f941 4fbe 278f f7be
00000080: 2104 a9be f47b ccbe 1aee 013e 0ba9 b1be
00000090: 0d9b febd 97c9 95be c2e5 debc 9d2a b8be
000000a0: 2d14 8fbe 407d dabe 110f 91be d790 25be
000000b0: 31b0 493e 274f 61be aaa4 aebe a102 babd
000000c0: 85c4 17be 7f3d a6be 7357 78be f589 9bbe
000000d0: 1996 a0be e93e 8abe 8305 14bf e9dc 52be
000000e0: 93cb d6bd 69ce 71be 33a5 95be 79c2 89be
000000f0: 75eb 8f3e 9be5 1bbe 470a d8be 196b a9be
00000100: 682d 7cbf da30 96be c7f5 a1be 1eb9 96be
00000110: fe98 3bbd 9de5 a4be 6256 7fbe 6329 14be
00000120: 25ab 64bd b791 a9be 0354 2abe 15aa a5be
00000130: dc4d 86be 1a42 4cbe 6e0c 34bd 4b0f 08bf
00000140: 3ae7 36be 82ab 9abe 299a e5be 450d c3be
00000150: 9aa3 c6bb a147 98be eef4 68be 5e9d 8d3e
00000160: 0df5 6dbe adc1 58be 4600 94be 435d 95be
00000170: fe85 a0be 75a5 b5be c445 20bf fa55 99be
00000180: 4b44 63be 2ee5 9bbe 2a7d 32be b251 d5be
00000190: cf63 c4be 41be 91be 9005 cbbe 75c9 debd
000001a0: 1097 b3be 2230 8fbe ce04 44be f399 bebd
000001b0: 6d1f 50be 2a93 0bbf 5f18 82be f545 8abe
000001c0: 4bf3 78be 286a dcbb 7e7e c8be 3bf6 e2bd
000001d0: 3c36 61be 7d8d 6abe aecb 92be ee81 88be
000001e0: f090 81be b5fb 8fbe d94b a3be 2073 a2be
000001f0: 203d b6be 8272 3abe e657 83be 206d 43be
00000200: 6cbd 01be bb17 81be e498 ed3e 80a5 a0be
00000210: 001e 263e 48e8 cdbe 011a d53e 5f68 1fbf
00000220: cf65 debd 4eee 39be a089 7abd c03d d7be
00000230: 5cb2 fabe 4017 85be 7695 bcbe 298a b9be
00000240: 674b b5be 08ee cebe 115d 9fbe 67b0 43bd
00000250: 885a 14be 9afd c0be 2cb4 0fbf 73d9 97be
00000260: 1edf 83be d129 0e3e 23f2 6cbe 3161 e9be
00000270: 64e3 84be cf17 2ebe fe49 5cbe eed9 2fbe
00000280: 6c0b 05bf e1e5 20be 535c b3be abb1 bdbe
00000290: 62ef 7dbd 51f3 a1be 1d75 bbbe 97c5 2bbe
000002a0: 7664 72be 896a f2be 0f0e e1bd b98b a7be
000002b0: 15ab 38be 5c03 49be 5dc3 fbbd bc51 71be
000002c0: 293d 18be c9b2 90be 08fa 9dbd ccaf b5be
000002d0: c623 c4be 14dc a8be a2d2 5bbe c570 3dbe
000002e0: 95f8 98be 39cc 0dbe 083b c2be a272 35be
000002f0: d829 c7be 5a1a c1be 3537 debd d9ba 36be
00000300: 83d8 d5be ef56 c3be f959 cdbe 72fc 8a3e
00000310: 4994 d9bd 1536 c9be f7a4 c2be 4ce7 54be
00000320: caf6 abbe 9e9f 55bc e5a4 d0be 91b7 6ebe
00000330: b2f3 1bbe 211a 59be aae0 03be 8716 73be
00000340: 99ac 92be 958c b3be e64a adbe 9fe0 1ebf
00000350: d877 003f 1d8b 85be 9fb2 09bf f80a dbbe
00000360: 343b e0be 7ede f5be bf89 c9be 6ccb 9fbe
00000370: 895d 7ebe 28dc 14be 9314 77be 7130 02bf
00000380: babf 6bbe bd4a 38be d343 2ebe 3bd7 97be
00000390: 6487 22be 743c b5be afca a6be cd17 00bf
000003a0: e5e0 3bbe d2c4 58be 5c26 dfbe 73b7 a4be
000003b0: 4de7 8bbd 7be6 f7bd 599d 92bd d8d4 00bc
000003c0: b1de c2be 8afa 6abe 3dab a0be 7882 9cbe
000003d0: a40d a4be c78f 37bc 293c adbe ed0d b4be
000003e0: b53e 42bd e195 bdbe 08c6 d1be ca6a 62bf
000003f0: addf 48be 3f7d 08be 39d0 acbd 27c0 fabc
-0.48088428 0.35159498 -0.25887376 -0.20383304 -0.39145705 -0.33741614 -0.013710804 -0.13586052
-0.3096238 -0.21172875 0.35343012 -0.41151944 -0.18604335 -0.29071262 -0.2906852 0.21009599
-0.31289107 -0.2734574 -0.097789876 -0.050705604 -0.2615768 -0.30463034 -0.2854784 -0.2793366
-0.12856568 -0.19737868 -0.14809959 -0.31135014 -0.2592263 -0.43472454 -0.2024001 -0.48351404
-0.33010963 -0.3993832 0.12688485 -0.34699282 -0.12431917 -0.29255363 -0.027209166 -0.3597001
-0.2794508 -0.42673683 -0.28331807 -0.16168533 0.19696118 -0.2200285 -0.34110004 -0.09082533
-0.1482106 -0.32468793 -0.24252109 -0.3037869 -0.31364515 -0.27001122 -0.5782091 -0.20592083
-0.104880475 -0.23613895 -0.292276 -0.26906183 0.28109327 -0.15224306 -0.4219534 -0.33089522
-0.98506784 -0.29334146 -0.31632826 -0.29438108 -0.0458002 -0.3220643 -0.24935296 -0.14468913
-0.05582728 -0.33118984 -0.1663361 -0.32356325 -0.26231277 -0.1994709 -0.043957166 -0.53148335
-0.17861643 -0.30208975 -0.44844177 -0.3809606 -0.0060619833 -0.2974215 -0.22749683 0.27659124
-0.2323801 -0.21167631 -0.2890646 -0.29172716 -0.31352228 -0.35477796 -0.62606454 -0.29948407
-0.2219402 -0.30448288 -0.17430559 -0.4166389 -0.38357398 -0.28465465 -0.3965268 -0.10878269
-0.3507619 -0.2796641 -0.19142458 -0.09306707 -0.20324488 -0.5452143 -0.2540922 -0.27006498
-0.24311559 -0.006726522 -0.39159006 -0.11082121 -0.21993345 -0.22905536 -0.2867102 -0.26661628
-0.2530589 -0.28121725 -0.31893805 -0.31728458 -0.3559351 -0.18207744 -0.25653 -0.19084597
-0.12669915 -0.25213417 0.4640571 -0.31376266 0.16222382 -0.4021628 0.41621402 -0.6226863
-0.10859262 -0.18157312 -0.061166406 -0.420393 -0.48964202 -0.259943 -0.3683278 -0.3623822
-0.3540909 -0.40415978 -0.31125692 -0.047775652 -0.1448766 -0.37693483 -0.56134295 -0.29658088
-0.25756162 0.13883139 -0.23139243 -0.45581964 -0.25954735 -0.1700127 -0.21512601 -0.17172977
-0.51970553 -0.15712692 -0.35031375 -0.37049612 -0.06199587 -0.31630948 -0.36612788 -0.16774593
-0.23671135 -0.47346905 -0.109890096 -0.32723787 -0.18034013 -0.19630188 -0.12293122 -0.23566335
-0.14867081 -0.28261402 -0.07713705 -0.35485685 -0.38308543 -0.32980406 -0.21467069 -0.1850005
-0.29877153 -0.13847436 -0.37935662 -0.1771951 -0.38899112 -0.37715417 -0.10850374 -0.17844714
-0.41766748 -0.38152263 -0.40107706 0.27145725 -0.10623986 -0.39299074 -0.38016483 -0.20791358
-0.33586723 -0.013038544 -0.40750805 -0.23312213 -0.15229681 -0.21201374 -0.12878671 -0.23739062
-0.28647307 -0.35068193 -0.33846205 -0.62061495 0.5018287 -0.26082698 -0.5378818 -0.42781806
-0.43795168 -0.4802131 -0.39362904 -0.31209886 -0.24840368 -0.14537108 -0.24128942 -0.50855166
-0.23022357 -0.1799726 -0.1701806 -0.29656395 -0.1587196 -0.35397685 -0.3257651 -0.5003632
-0.18347509 -0.21168831 -0.43583953 -0.3217121 -0.068312265 -0.121045075 -0.07158918 -0.007863246
-0.38060525 -0.22947136 -0.31380644 -0.3056829 -0.32041657 -0.011203713 -0.3383496 -0.35166875
-0.047423083 -0.3702841 -0.40971398 -0.884442 -0.19616576 -0.13329028 -0.08438153 -0.030609204

features.6.weight f4 [256, 256]
00000000: 81a4 a33c 7650 53be e339 813c 987d 893c
00000010: 87e7 cd3c 00b5 d8bc a807 d5ba 28ef 1cbd
00000020: 1e19 233c 627c 20bd d5fc 183e 6322 43bd
00000030: ac94 0f3d 54ca 33bd 1a76 af3d 681e 37be
00000040: 36ef 62bd dd5e bdbc c49a 733d b8a3 3fbd
00000050: d16a 773c 9264 0d3d d929 60bd 1cbb 9cbc
00000060: d714 f53c 1826 a83c 8869 c03c 3af1 83bd
00000070: df75 a13d 3d9c c0bd 7c34 343c 08fa 083c
00000080: 14a0 e93c 0ae2 52be 1c75 52bd 577d 9d3d
00000090: 12ec b03b 46a8 a9bc d14c c2bd d140 af3d
000000a0: 7bea 8abc b152 aa3c 09a6 643c 8459 f13d
000000b0: c24c 9f3d ae79 04be 54b4 cd3c c72e ba3b
000000c0: a8e4 a1bb 79cc cd3c 56ba 613b ba19 dfbd
000000d0: aef1 133d 7921 3e3d 4618 39bd a00f e4bb
000000e0: 15d6 03be 019a 5cbd 0991 a0bc 4049 81bc
000000f0: ad3c 2fbe bfe3 0e38 06b6 82bc 7349 f33d
00000100: bea5 dfbd 721f a4bd 579b 9fbc 57f9 293d
00000110: f785 47bd a191 383d ec1b 923c 3812 343c
00000120: bce1 62bd edd0 a9bc 1409 2fbd 46d3 0ebb
00000130: 8bc5 d8bc 6973 353d 7c54 693d 5e06 babd
00000140: e351 233d 5ef4 103d 114c 3c3d b218 c03d
00000150: 2f18 8bbd c76e 00bd f59e 003c 0cc1 bfbd
00000160: f6e7 bbba 6512 04be f260 623d 9ab7 9e3c
00000170: f1e9 333d 6516 313d edc9 debb c7fe 02bd
00000180: 34c3 9abd fc4c 973d 30f0 7e3d 3412 5dbd
00000190: 8c54 113d 3bab 9b3d 45be 6ebc 7554 a63d
000001a0: 7220 8abb 7ee0 16bd 97c7 2ebc 52d9 22bd
000001b0: d9ac c53c d9ee 0cbd c668 7e3d a89f 2dbb
000001c0: 2de8 5c3d e3f6 413e 306e 563d f945 7ebd
000001d0: d637 a7bc fe6e 50bd 9b5b fbbb 275f e3bb
000001e0: 3fdb 1abd f8f6 afbc fac3 093d c75e 7b3d
000001f0: 68db a43d 062f 0f3d f8e4 c83c 0b1e d3bc
00000200: e9d9 46bd 19a5 90bd 199d 93bd 286a f1bc
00000210: 2c61 163b 6ac9 d13c 9973 babc 011a 9bba
00000220: 3fec aebc b247 9a3d 96b6 b9bc 1e06 92bd
00000230: 45ad e3bc b0f2 503c 83dc 453d 1c9a 113e
00000240: b4f1 b7bc 2bde 65bd 728b 00bd 8f1f 033d
00000250: ab36 4e3d 03f1 16bd ff93 543d d8ab fd3c
00000260: 8c42 a3bd 273f 36bd 9e56 b7ba 534e 83bc
00000270: 33a2 0f3c 99ca f4bd 7c88 023d 607c 44bc
00000280: 8c9a 9cbd e73f 343c aab2 c33d 2c00 003d
00000290: 7ac9 b8bd 7906 8abd 48c9 da3c 2854 acbd
000002a0: 1629 50bd 1a01 b63d 06a1 f6bc f20c cb3b
000002b0: c96c f93d fec1 7abd ef0d eb3b 3326 ac3c
000002c0: 9482 973d 27a1 953c 20b2 ff3c 7682 ac3c
000002d0: f771 5b3d 5def 813d 606e ee39 fc5a 5f3d
000002e0: 7406 0e3d 6af4 cebc 3b2d c6bd 5767 263e
000002f0: 5409 80bd dedf 18bd 2c08 073d 6217 5e3d
00000300: 33fc 5d3d 6664 9f3c b330 d1bc e9c7 e5bc
00000310: 10e1 f2bb 1a44 d5bb 5e46 003d 6bd8 673d
00000320: fe1a d0bc 8568 d6bc c853 d8bd 418a afbc
00000330: 395a 31bd 719d 12bc 2801 dd3b 7753 243d
00000340: e046 a9bd af76 58bd 77d3 453e e3cf f1bd
00000350: 8c19 f7bd c9dd ac3d 3f25 073c 53cb 04bd
00000360: c24d 0f3d 5604 14bc 17b5 063d d25b 043d
00000370: b7a9 0bbc b7ac 873c d3b1 0bbd 1de6 bfbc
00000380: c9f9 233d 4de2 483d a9fa dcbb e0ec 8bbd
00000390: 0f91 7d3c 6f62 36bb 295a 473d 5abb 673d
000003a0: a31a 0fbd 86eb 37bd 423a 62bd dedf 91bc
000003b0: d70e c7bc e301 eb3c 9bbc 9bbe 6a74 58bd
000003c0: 2a6c 31be bfd1 243d 24b1 e03a 8899 f3bc
000003d0: 3828 39bd 770a 94bb 6e7a f83c 431c ccbb
000003e0: 4284 50bd 47d6 173c 1395 ef3d 0987 1bbd
000003f0: 5edf e93c 18e2 5c3d 5456 c43c 202f 883c
0.019975903 -0.20636162 0.015774673 0.01678352 0.025134815 -0.026453495 -0.0016252892 -0.038314015
0.009954719 -0.03918112 0.14940198 -0.047640216 0.035053894 -0.043894127 0.08567448 -0.17882693
-0.05540391 -0.023116523 0.059473768 -0.046786994 0.015101151 0.03451974 -0.05472741 -0.01913219
0.029917164 0.020525977 0.023487821 -0.06442495 0.0788381 -0.094048 0.010998841 0.008360393
0.028518714 -0.2059404 -0.051381215 0.07689922 0.0053992355 -0.020710122 -0.09487308 0.085572846
-0.016957512 0.020791383 0.0139556015 0.11784652 0.07778312 -0.12937042 0.025110401 0.005681846
-0.004940588 0.025121914 0.003444334 -0.10893579 0.036119156 0.04641864 -0.045189165 -0.0069598705
-0.12874635 -0.053857807 -0.019600408 -0.015781999 -0.1711299 3.4067543e-05 -0.015955936 0.11879244
-0.10920285 -0.0801381 -0.019483251 0.041497555 -0.048711743 0.045060758 0.01783558 0.010990672
-0.05539106 -0.020729506 -0.042733267 -0.002179341 -0.026461383 0.044299517 0.056965336 -0.09083246
0.039873015 0.035389297 0.04597098 0.0937971 -0.06791722 -0.031355646 0.007850398 -0.09362993
-0.0014336098 -0.12897642 0.055268236 0.019374657 0.043924276 0.043234248 -0.006798974 -0.031981256
-0.07556763 0.073877305 0.06224078 -0.053972438 0.03548102 0.07601019 -0.014571731 0.08121578
-0.0042152936 -0.036835186 -0.010667703 -0.039758034 0.024130272 -0.03440747 0.06211164 -0.0026492868
0.053932358 0.18941836 0.052351177 -0.06207845 -0.020412367 -0.0508871 -0.0076708323 -0.0069388333
-0.037806746 -0.021480069 0.033634163 0.061369684 0.08049661 0.034956954 0.024523243 -0.025771162
-0.04854766 -0.0706274 -0.072076984 -0.029469565 0.0022946103 0.025608737 -0.0227602 -0.0011833311
-0.021352885 0.07533206 -0.022670072 -0.07130073 -0.027792582 0.012753174 0.048306 0.14218944
-0.02245412 -0.05612008 -0.031382985 0.03201252 0.050345104 -0.03685094 0.051898953 0.03096573
-0.07971677 -0.04449382 -0.0013987606 -0.016028559 0.008766699 -0.11952705 0.031868443 -0.011992544
-0.07646665 0.011001564 0.09555562 0.031250164 -0.090228036 -0.06739516 0.026707307 -0.08414489
-0.050820433 0.08886929 -0.030106079 0.0061966116 0.12178952 -0.06122016 0.007173292 0.021014309
0.07397953 0.01826532 0.031212866 0.021058302 0.053575482 0.06344483 0.00045477133 0.05453013
0.034674123 -0.02526303 -0.09676596 0.16250359 -0.06251779 -0.03732287 0.032966778 0.05422152
0.054195594 0.019457053 -0.025535917 -0.028049426 -0.0074120834 -0.0065083625 0.031317107 0.056602877
-0.025403496 -0.026172886 -0.10562855 -0.02142823 -0.043298934 -0.00894867 0.0067445226 0.04011866
-0.082654715 -0.05284756 0.19318949 -0.11807229 -0.120654196 0.0844074 0.008248626 -0.032420468
0.034986265 -0.009034237 0.032887544 0.03231413 -0.00852435 0.016561849 -0.034105133 -0.023425156
0.040033136 0.049043942 -0.006743748 -0.0683229 0.015476479 -0.0027829667 0.048669968 0.056575157
-0.034937512 -0.044902347 -0.05523134 -0.017806944 -0.024299068 0.028687423 -0.30417332 -0.052845396
-0.17326418 0.040239092 0.0017142636 -0.029736295 -0.04520437 -0.004517849 0.030331817 -0.006228955
-0.05090738 0.009267396 0.116983555 -0.037970576 0.028548893 0.053926557 0.023966946 0.016624033

features.6.bias f4 [256]
00000000: 8f5b 9abe 99df 59be 21a7 dfbd a196 1abe
00000010: 52cc dfbd 5f0f 29be fef7 4dbe 7f3b 22be
00000020: 439f 9abe 5131 7ebe c250 4cbe 52f1 64be
00000030: ccb2 85be 9599 2e3d 9905 f13d 8939 86be
00000040: e800 973d 8735 4dbe 737a 8f3c be3a 1dbd
00000050: 9bae 8fbe 27bc 86be 9965 0cbe e7b8 17be
00000060: 4916 81be 65c0 82be 4627 b8be 0642 edbb
00000070: 8c81 80be a151 65be 78ab b0be 6734 66be
00000080: afb9 3bbe aa83 75bd 5689 48be 8277 9abe
00000090: 935f 94bd bd0b 2fbe ec73 3ebd 414c 2ebe
000000a0: c074 d7bd 53df b7bd b29b d4bd be26 9fbe
000000b0: b27a 15be b89b 12be f5a7 83bd 53a7 43be
000000c0: 1247 fe3c 9e15 1abe 4451 3abe 4ade 42be
000000d0: d8fe 57be 6d52 a1be 74db 3cbc 025f 88be
000000e0: d61a cd3c 28e7 b0be bbcc dcbd 1dfc cdbe
000000f0: b192 98be b4de 1abd 9c02 103d a2ae 1abd
00000100: a242 63be f63a 0dbe a15e 55be 6d66 37be
00000110: 69a5 39be f6c9 a7be 763c 80bd 9260 3dbc
00000120: 7d03 84be 6f58 1abe 7aad 7fbe 8414 5ebe
00000130: 6542 84bd bcd8 e4bd 2873 54be 4477 90be
00000140: 2906 5fbe 413d 74be 6476 79bd 576f 84be
00000150: 121a 16bc 89f4 18be 33c6 d93d 2939 02be
00000160: 98dc 2bbc 38c4 67be 04dd 15be 126f 82be
00000170: 52a8 42bd 240c 8cbe 1c8e 00bf c9cb 88be
00000180: b4c5 36be 5cfc 89be 845c d0be c62a debd
00000190: 83ec 39bd 3a26 9fbe acb8 84be 8cde c9bd
000001a0: 510b 10bc 815f 80be bb71 70be b4e6 983c
000001b0: 2386 40bd 0b7c 19bc eaee cdbd 9f9a 8bbe
000001c0: 26d3 02be 28da 02bc 45f5 13be 9f4f 5abe
000001d0: 8235 b7bc 79a3 1b3d 25ed 17bc 77ab acbe
000001e0: f384 6abe ceba 74be 25bf 58be 11f9 67be
000001f0: 93ea 3cbe b3e1 b0be bd7c fb3d 6cf3 3bbe
00000200: 7b1e 5fbb d132 4ebe 91d0 b9bd a668 aebd
00000210: abc2 35be e45f 42be e5b0 a9be db4d dcbd
00000220: 700b 0fbe 9d9d 46bd e279 29bd a0c6 81be
00000230: c46c 15bd e85a 5bbe 9508 a2bb c6d6 94be
00000240: 8db8 89bd 35a6 debd c178 f8bd 5da6 c2bc
00000250: 14e1 37be 4293 0fbe e869 b63d ee6e dcbd
00000260: e128 4dbe 6b3a 48bd b5b5 c4bc 4775 efbd
00000270: b960 89bd ad24 29be b40e 06be 2ee5 94be
00000280: 3283 39be 465c 84be 9367 79be 9d0c a9bd
00000290: 095b 39be 2741 6bbe 8341 78bc 710d 80bd
000002a0: e4db dabc 1100 93bd 9d9b ec3d 294b 7ebd
000002b0: 76eb 4dbd b4cf a8bd 648e 98bd 047c 8ebe
000002c0: 5cb5 50be a80c 4dbd 6643 89be ae81 02be
000002d0: 6b13 e7bc 2ed6 56be 5ff1 75be a7f0 73bc
000002e0: f9fe 48be 9221 aebe 6171 e0bd 2438 d0bd
000002f0: 5eff d5bd 1c24 8fbe bed5 29be 7484 c83d
00000300: 08ee 0cbe 6117 6abc ca7f a1bc e8d0 a23d
00000310: aafa 8fbe f0e3 6fbe 584a 19be 51ac 4dbe
00000320: 33d9 b6be 751d afbe dbb8 f1bd 373c f7bd
00000330: d0ea 46bc 6bb8 0fbe cfb1 40be 4095 36be
00000340: f180 5abe 5d43 71be 9c00 93be ae54 86be
00000350: 5acf b2bd d0c7 42be e554 77be b1cb b5bc
00000360: 1ac2 73bd 0916 39be 093f 9ebe 565a 38be
00000370: 0983 00be 5b99 79bd fa88 42be d8bb 92be
00000380: 9ff5 c0be f9e3 74be cce8 81be 450a 98be
00000390: c42f 27be 1b5e 10be a4f1 28be d60a 29be
000003a0: 2497 96be be72 90be febe a6bd e004 34be
000003b0: d9bb 65bc 9a7b b1be 260e d7bd ed93 9dbe
000003c0: 7925 a2be 44ff abbd 4820 9abe 2764 85be
000003d0: b883 73be 2e05 48be 30ab 12be 67d1 96bd
000003e0: 1ef9 91bd 1fc4 01be c45d 68be 5de7 0d3d
000003f0: 0699 88be a506 62be 67cb 7abe be4c 06be
-0.3014798 -0.21276702 -0.10920549 -0.15096523 -0.10927643 -0.1650977 -0.20114133 -0.15843008
-0.30199632 -0.248235 -0.19952682 -0.22357681 -0.26112974 0.042626936 0.11768646 -0.2621577
0.0737322 -0.2003995 0.017514443 -0.0383861 -0.280629 -0.26315424 -0.13710631 -0.14816628
-0.25212315 -0.2553741 -0.35967463 -0.0072405366 -0.25098836 -0.2239442 -0.3450582 -0.22480927
-0.18332551 -0.059940018 -0.1958364 -0.30169302 -0.07244792 -0.17094322 -0.04649727 -0.17021276
-0.10520315 -0.089781426 -0.10381259 -0.31084245 -0.14597586 -0.14317214 -0.0642852 -0.19106798
0.031039748 -0.15047309 -0.18195063 -0.19030109 -0.21093309 -0.31508198 -0.011526931 -0.26634985
0.02503721 -0.34551358 -0.10781237 -0.4023141 -0.29799417 -0.037810043 0.03515874 -0.0377642
-0.22193387 -0.13792023 -0.2083688 -0.17910166 -0.18129505 -0.3277127 -0.06261532 -0.011558669
-0.2578391 -0.15072797 -0.2496852 -0.21687514 -0.06457976 -0.11174151 -0.20747054 -0.28215992
-0.21779694 -0.23851492 -0.06090392 -0.25866196 -0.009161489 -0.14937033 0.106335066 -0.12717117
-0.010489605 -0.22633445 -0.14635092 -0.25475365 -0.047523804 -0.27353013 -0.5021684 -0.26717976
-0.17848855 -0.26950347 -0.40695584 -0.10848002 -0.04539157 -0.31083852 -0.25922143 -0.098569006
-0.008791761 -0.25072864 -0.23480885 0.018664695 -0.047002923 -0.009367953 -0.10055335 -0.27266404
-0.12775859 -0.007986583 -0.14449032 -0.21319436 -0.022364382 0.037997697 -0.009272848 -0.33724567
-0.22902279 -0.23899385 -0.21166666 -0.22653605 -0.18448858 -0.34547195 0.12279651 -0.18354577
-0.0034045267 -0.20136572 -0.09072984 -0.08516054 -0.17750041 -0.18981892 -0.33142772 -0.10757037
-0.13969207 -0.048490155 -0.041376002 -0.2534685 -0.03648068 -0.21421397 -0.0049448707 -0.2907011
-0.067246534 -0.10871545 -0.12132407 -0.023760969 -0.17956954 -0.14021018 0.08906919 -0.10763346
-0.20035125 -0.048883837 -0.024012426 -0.11692291 -0.067079015 -0.16517897 -0.13091546 -0.290811
-0.18116453 -0.2585165 -0.24355917 -0.08254359 -0.18101133 -0.22974072 -0.015152338 -0.06252564
-0.02671618 -0.07177747 0.115531184 -0.062083397 -0.05027338 -0.08242741 -0.07449034 -0.2782899
-0.20381683 -0.050060898 -0.26809233 -0.12744781 -0.028207501 -0.2098014 -0.24017857 -0.014888919
-0.19628514 -0.34009987 -0.10959125 -0.10166958 -0.10449098 -0.27957237 -0.16585442 0.097908884
-0.13762677 -0.0142878005 -0.019714255 0.07950002 -0.2812093 -0.23426795 -0.14969766 -0.20085265
-0.35712585 -0.3420216 -0.118028365 -0.12072032 -0.012140945 -0.14035194 -0.18817829 -0.17830372
-0.2133825 -0.23560853 -0.28711402 -0.2623648 -0.087309554 -0.19021535 -0.24153478 -0.022191854
-0.05951128 -0.18074812 -0.30907467 -0.1800321 -0.12549986 -0.060937267 -0.18997565 -0.28658938
-0.37687394 -0.2391509 -0.25372922 -0.29695335 -0.16326815 -0.14098398 -0.16498429 -0.1650804
-0.29412186 -0.2821254 -0.081418976 -0.17579985 -0.014021837 -0.34664613 -0.105007455 -0.3077692
-0.31669214 -0.083982974 -0.30102754 -0.26052973 -0.23780715 -0.19533226 -0.14323115 -0.07364159
-0.071275935 -0.1267247 -0.22692019 0.034644473 -0.26679248 -0.22072847 -0.24491654 -0.13115212

features.9.weight f4 [256, 256]
00000000: a243 9e3c 15b7 fdbc f7f4 29be 016d f3bb
00000010: 1e31 9bbd d371 053d bd5f 1ebd c735 72bd
00000020: 981d 64bd 28e0 79bc af3f 273d a05f 0b3d
00000030: dab5 9ebb 42b8 a5bd 859b 3abd b430 22bd
00000040: d596 343c 8600 a7bc 7e65 543d e9d9 01bd
00000050: 5a24 d8bc a59b 3cbd 2f45 25bd cf38 9ebd
00000060: 2eb1 81bb 827d b13c 0232 7ebd 03b1 ac3d
00000070: ebb8 a9bd 5385 8ebd 4a69 8abd 367f 9cbd
00000080: a165 54bc 574a 25bd 382f 88bd 2fbb 67bd
00000090: decc fd3d 3dee 80bb 7189 a1bd b53a afbd
000000a0: d009 abbd f0d2 0b3d ee2e 14be da67 bcbb
000000b0: 39a1 723b 2246 5abd b2dc 183d b304 56bd
000000c0: 79a3 02bd 43e3 80bc f7af b4bc 8f97 2fbd
000000d0: e178 8ebd a4f0 13bd 407c 93bc 4a9e db3c
000000e0: 0a54 be3c a1f4 a5bb 9182 df3d 24e6 cdbd
000000f0: fd78 87bc 0e88 203c 0faa b03a f789 8c3b
00000100: 13e4 18ba 18ba 73bc 6910 57bb 5eac 9abc
00000110: cf55 4bbd 3b55 c2bd d8d3 5f3d 0b4c d4bd
00000120: 88a6 e2bd 8cdd 103d 9e33 213d 978f 2abc
00000130: b145 bdbd aa60 35bd b84c 503d 0e7c e53c
00000140: 8cfc 06bd bafb ac3d f5c9 073d 0046 cbbd
00000150: 2d28 c9bd c489 8abd 43c8 7fbd c450 59bd
00000160: 4462 89bd 8b71 bdbd 8441 aa3d f9f2 15bd
00000170: f935 debc d4d6 9cba 7f98 5abc d3bf 523d
00000180: 4f90 113c cf97 1d3d 34d1 38bd 1994 b3bc
00000190: df16 da3d 909c 053b 0018 c5bc 99b7 e3bc
000001a0: afce 2dbd 14df bebd 6d1d 0bbe bf29 32bb
000001b0: b573 acbd 3a66 073d 92a7 b7bc b2f3 1fbd
000001c0: e01c b53c 7212 1c3e c1bc 29bd 5527 afbd
000001d0: 93eb b73d 7d69 9ebd 1ad0 aa3b df73 23bd
000001e0: 9a7e f63c 447f 74bd 43ca 723d 7eff 2c3e
000001f0: ad98 adbc d08c 33bd 562f 4b3c 9f32 f7bc
00000200: 114d d93c 1a82 8c3d 6aa4 a6bd f384 90bb
00000210: e962 d9bd 718e 023d b42b 033d 8f63 553d
00000220: 2f2f d0bd 7e99 05bd 139b 863c c978 78bd
00000230: b588 57bd d870 af3c 9808 1a3d 7dc0 a6bd
00000240: 2f6b f63d d146 b3bd 321b 6c3d f59a 53bd
00000250: 09ad 09bd b2c6 c0bc e919 943c ee02 89bd
00000260: 107c 5abd 4331 653d ee57 d7bd 9bc6 293d
00000270: 17d7 053d 05d5 f43c a00c 5abd f753 4b3c
00000280: 22b7 293d ece5 993c 18af 85bd 6fe5 82bd
00000290: 1607 3ebd 04c2 b4bc 4a4a 0bbd 574f b63d
000002a0: 69e5 553d ee36 1f3d 2ead 23be 4daf 003d
000002b0: 8130 4dbd 1733 26bd 346c 27bd 7b85 dbbd
000002c0: 8d23 aa3c f2f7 efbc 962c a1bd c4a3 88bc
000002d0: 9420 30bd ee00 75bd b7b5 19bd 21a8 ad3b
000002e0: acc5 9f3a c8ff 34be 5e67 abbd 9c5c debd
000002f0: fa17 c9bc c6ee 8abd f007 eebb e55e 863d
00000300: 16e4 16bd 9e3d 53bc 5597 9d3d d5eb 8fbd
00000310: b295 39bd 2020 383d 2e66 73bd cb4c a63d
00000320: bb51 363d cc2d d3bd 0abe 943d 70f9 5dbc
00000330: cf5d 88bd 9cef fdbc 8ac2 1d3d 8ab7 05be
00000340: 3a88 2fbd ff79 90bd 3050 aabd 8ccc 12bd
00000350: 783c 033e 546f acbd 3d54 773c dce3 efbd
00000360: d118 9c3c e20b 2ebd bf3b ccbc ab55 18bd
00000370: 1926 153d 9690 5fbd 8221 b8bd 5b9e b4bb
00000380: da8b 34bd c7e3 2a3e dd12 b83c 8096 8abc
00000390: d3d9 543d 4034 91bd 62c0 a33d d04f 353d
000003a0: 5b93 a2bc 09ad 77bc 1f91 373b 11fa efbd
000003b0: 67b8 27bc bcfe 9ebd 8dc1 6fbd bb16 1cbd
000003c0: 370e 2ebd 5e65 4cbc 86d5 a8ba 35d9 82bd
000003d0: 9a0c 1f3d 3e85 0a3d bb22 8abd 5b35 3fbd
000003e0: bc6b 9bbc 4182 31bb 5e37 c6bd 08c7 f93c
000003f0: e8bb 03bd ec03 dabd 9ba3 9c3c ad7c 83bc
0.01931936 -0.03097109 -0.16597353 -0.0074287658 -0.07577728 0.032579254 -0.038665522 -0.059133317
-0.055692285 -0.015251197 0.040832218 0.034026742 -0.0048434557 -0.08091785 -0.04555847 -0.03959723
0.011022289 -0.020385992 0.051854603 -0.031701956 -0.026384521 -0.04604687 -0.04034918 -0.07725679
-0.003957889 0.021666292 -0.06205941 0.084322 -0.082872234 -0.06959023 -0.067583635 -0.07641451
-0.012963683 -0.0403541 -0.06649631 -0.056574997 0.12392591 -0.00393465 -0.07887543 -0.08556119
-0.08351481 0.034136713 -0.14471027 -0.0057496848 0.0037022366 -0.05328954 0.037319846 -0.052250575
-0.03189418 -0.015733367 -0.022056563 -0.042869147 -0.069566496 -0.036118165 -0.018003583 0.026808877
0.023233432 -0.0050645624 0.109135754 -0.100536615 -0.016537184 0.009798063 0.0013478416 0.0042889076
-0.00058323256 -0.014875911 -0.0032816178 -0.01888102 -0.04964238 -0.09488913 0.05464539 -0.103660665
-0.110669196 0.035367534 0.039355867 -0.010410211 -0.09241808 -0.04428164 0.050854415 0.028013255
-0.03295569 0.084464505 0.033151586 -0.09925461 -0.09822116 -0.06764558 -0.062446844 -0.05305554
-0.06708196 -0.09250172 0.08313277 -0.03660867 -0.027125346 -0.0011965879 -0.013342022 0.05145247
0.0088845035 0.038474854 -0.045121387 -0.021921204 0.106488936 0.0020387508 -0.024059296 -0.027797507
-0.042433437 -0.093198925 -0.13585444 -0.0027185527 -0.08420507 0.033056475 -0.022418771 -0.039050765
0.022108495 0.15241411 -0.041439775 -0.08552424 0.08980479 -0.07734964 0.005212796 -0.039905425
0.030089665 -0.059691682 0.059274923 0.16894338 -0.021190966 -0.04383546 0.0124014225 -0.030175505
0.026526006 0.068607524 -0.08136828 -0.00441038 -0.10614569 0.031874124 0.0320241 0.0520969
-0.101652496 -0.032617085 0.016431367 -0.060662065 -0.05262061 0.021416113 0.037605852 -0.08142183
0.120321624 -0.087537415 0.057643123 -0.05166145 -0.033612285 -0.023532245 0.018078761 -0.06690012
-0.05334097 0.055955183 -0.10514818 0.04144917 0.03267583 0.029886732 -0.053234696 0.0124101555
0.041434415 0.018786393 -0.06527537 -0.06391417 -0.046393476 -0.02206517 -0.034006394 0.089018516
0.052220736 0.038870744 -0.15984032 0.03141718 -0.050095085 -0.040576067 -0.040874675 -0.10718819
0.020768905 -0.029293034 -0.07869832 -0.016679652 -0.04299982 -0.05981534 -0.037526812 0.0052995835
0.0012189648 -0.17675698 -0.08369325 -0.108575076 -0.024547566 -0.06783824 -0.00726413 0.065610684
-0.036838613 -0.012893109 0.0769488 -0.07027403 -0.045308776 0.04495251 -0.059423618 0.08120116
0.044511538 -0.103114694 0.072628096 -0.01354824 -0.066585176 -0.030998044 0.038515605 -0.13058296
-0.042854525 -0.07054519 -0.08316076 -0.035839602 0.12816036 -0.08419672 0.015095768 -0.117133826
0.019054802 -0.0424918 -0.024930833 -0.037191074 0.036413286 -0.054581247 -0.08990766 -0.0055120415
-0.044078685 0.16688453 0.022469932 -0.016917467 0.051965546 -0.07090044 0.079956785 0.04426557
-0.019845655 -0.015116938 0.0028010083 -0.11717618 -0.010236836 -0.077634305 -0.058534194 -0.038107615
-0.042494025 -0.01247534 -0.0012881018 -0.06389085 0.038830377 0.033818476 -0.067449056 -0.046681743
-0.01897227 -0.0027085694 -0.09678529 0.030490413 -0.032161623 -0.10645279 0.019120982 -0.016050661
